…
ernal/local_xla/xla/stream_executor/cuda/cuda_dnn.cc:8454] Unable to register cuDNN factory: Attempting to register factory for plugin cuDNN when one has already been registered\n2025-03-09 13:26:39.348501: E external/local_xla/xla/stream_executor/cuda/cuda_blas.cc:1452] Unable to register cuBLAS factory: Attempting to register factory for plugin cuBLAS when one has already been registered\nOverriding model.yaml nc=80 with nc=2\n\n                   from  n    params  module                                       arguments                     \n  0                  -1  1       464  ultralytics.nn.modules.conv.Conv             [3, 16, 3, 2]                 \n  1                  -1  1      4672  ultralytics.nn.modules.conv.Conv             [16, 32, 3, 2]                \n  2                  -1  1      7360  ultralytics.nn.modules.block.C2f             [32, 32, 1, True]             \n  3                  -1  1     18560  ultralytics.nn.modules.conv.Conv             [32, 64, 3, 2]                \n  4                  -1  2     49664  ultralytics.nn.modules.block.C2f             [64, 64, 2, True]             \n  5                  -1  1      9856  ultralytics.nn.modules.block.SCDown          [64, 128, 3, 2]               \n  6                  -1  2    197632  ultralytics.nn.modules.block.C2f             [128, 128, 2, True]           \n  7                  -1  1     36096  ultralytics.nn.modules.block.SCDown          [128, 256, 3, 2]              \n  8                  -1  1    460288  ultralytics.nn.modules.block.C2f             [256, 256, 1, True]           \n  9                  -1  1    164608  ultralytics.nn.modules.block.SPPF            [256, 256, 5]                 \n 10                  -1  1    249728  ultralytics.nn.modules.block.PSA             [256, 256]                    \n 11                  -1  1         0  torch.nn.modules.upsampling.Upsample         [None, 2, 'nearest']          \n 12             [-1, 6]  1         0  ultralytics.nn.modules.conv.Concat           [1]                           \n 13                  -1  1    148224  ultralytics.nn.modules.block.C2f             [384, 128, 1]                 \n 14                  -1  1         0  torch.nn.modules.upsampling.Upsample         [None, 2, 'nearest']          \n 15             [-1, 4]  1         0  ultralytics.nn.modules.conv.Concat           [1]                           \n 16                  -1  1     37248  ultralytics.nn.modules.block.C2f             [192, 64, 1]                  \n 17                  -1  1     36992  ultralytics.nn.modules.conv.Conv             [64, 64, 3, 2]                \n 18            [-1, 13]  1         0  ultralytics.nn.modules.conv.Concat           [1]                           \n 19                  -1  1    123648  ultralytics.nn.modules.block.C2f             [192, 128, 1]                 \n 20                  -1  1     18048  ultralytics.nn.modules.block.SCDown          [128, 128, 3, 2]              \n 21            [-1, 10]  1         0  ultralytics.nn.modules.conv.Concat           [1]                           \n 22                  -1  1    282624  ultralytics.nn.modules.block.C2fCIB          [384, 256, 1, True, True]     \n 23        [16, 19, 22]  1    862108  ultralytics.nn.modules.head.v10Detect        [2, [64, 128, 256]]           \nYOLOv10n summary: 385 layers, 2707820 parameters, 2707804 gradients, 8.4 GFLOPs\n\nTransferred 493/595 items from pretrained weights\n\u001b[34m\u001b[1mTensorBoard: \u001b[0mStart with 'tensorboard --logdir runs/detect/train2', view at http://localhost:6006/\n\u001b[34m\u001b[1mwandb\u001b[0m: Using wandb-core as the SDK backend.  Please refer to https://wandb.me/wa
…
